ai/model/model.pth (torch, 16799 bytes, 4 tensors)

linear1.weight f4 [256, 11]
000000 2b 13 2e be d3 fb 97 be 16 63 79 3e 30 b4 53 3c
       -0.169995 -0.29684314 0.24354205 0.012921378
000010 a9 a6 2f 3e e2 0e b6 bb c6 9f 86 3e 63 21 2c 3e
       0.1715342 -0.0055559734 0.26293772 0.16809611
000020 06 2b 2a 3e 09 a9 cd 3d 7b 3b 09 3e fb 28 0c be
       0.16617975 0.100420065 0.13401596 -0.13687508
000030 76 de 33 be 86 2e 97 3e 52 de c5 3b 9a a8 22 3e
       -0.17565331 0.29527682 0.0060384655 0.15884629
000040 3f 1c 98 be 5c 6c 61 3e 62 fb fc 3d c3 f4 8a be
       -0.2970905 0.22013992 0.12352635 -0.27139863
000050 f4 6d 4c be bf 50 8e 3e bc c3 86 be 1e 0d c4 bd
       -0.19963819 0.2779598 -0.26321208 -0.095728144
000060 cd ad de 3d 04 35 8d be 8c b0 34 be b7 2b 9a be
       0.108729936 -0.2757951 -0.17645472 -0.30111477
000070 6d e8 65 3e d6 44 10 bc 9a b9 5d 3e ea db 49 be
       0.22451945 -0.008805474 0.21652833 -0.19712797
000080 41 5b 4f 3d ed e7 e1 bd 06 b6 21 bd 4b 93 2e 3e
       0.050624136 -0.110305645 -0.03948023 0.17048375
000090 20 86 f1 3d 1d 81 3e 3d b9 a3 61 3e 8b a0 6e 3e
       0.117931604 0.04650985 0.22035111 0.2330343
0000a0 c6 5d 01 3e a9 fa 0b 3d 67 4f e5 bc 82 b3 3f 3e
       0.12633428 0.034174595 -0.027991964 0.1872082
0000b0 39 8c 18 be c1 57 31 3e 98 92 b4 3d 3b 9b 7f 3d
       -0.1489724 0.17318632 0.08817023 0.0624039
0000c0 3b 68 2c 3e 39 96 70 be b6 d3 4c 3e e7 5c b1 bd
       0.16836636 -0.23494805 0.20002636 -0.08660298
0000d0 61 9a 09 bd 6c 48 8d be a7 ff 45 3e 48 00 43 be
       -0.033594493 -0.27594316 0.19335805 -0.19043076
0000e0 75 33 58 3e 48 82 78 3d 12 65 3d 3e 82 33 49 bc
       0.2111338 0.06067112 0.18495587 -0.012280347
0000f0 8d 31 3b 3e 6e 52 41 3e 6c 07 eb bd b6 fc 01 3d
       0.18280621 0.188791 -0.11476025 0.031735145
000100 5b 6a 8e be 0d 75 17 bd 3a 2b 58 3d 30 a0 b9 bd
       -0.27815518 -0.036976863 0.0527756 -0.090637565
000110 10 bf 0c 3e 42 37 04 3e 2c 37 9e 3d 30 54 94 3e
       0.1374476 0.12911704 0.07725367 0.2897048
000120 f8 e4 5a 3e 88 3b 43 3e 89 7b 6c 3e e7 31 8e be
       0.21376407 0.19065678 0.23094 -0.27772447
000130 8a a7 96 3e 80 26 47 bb 69 cc ea 3d 2d 33 85 bd
       0.29424697 -0.0030387938 0.114647694 -0.06503902
000140 e2 2d 3c 3e e0 cd 18 3e 4c 79 0c bd d5 00 4e bd
       0.18376878 0.14922285 -0.034295365 -0.050293762
000150 c1 d9 88 3e b8 66 92 be af 09 bc bd 55 22 6c be
       0.26728633 -0.28593993 -0.091815345 -0.23059972
000160 e3 5c fb 3c cb e3 fd bd d8 38 9a 3d 8c 99 c7 bc
       0.03068394 -0.12396964 0.07530373 -0.024365209
000170 83 1a 1f be 96 97 f7 3c 22 63 58 3e c3 66 41 bc
       -0.15537457 0.030223649 0.21131566 -0.011804285
000180 12 8a bc bc cf 62 21 be bb d1 50 3e d5 ad 7a 3e
       -0.023015056 -0.15760349 0.20392506 0.24480374
000190 a6 ee 95 be 65 06 87 be 14 84 73 be de 68 cf bd
       -0.29283637 -0.26372066 -0.23780853 -0.10127424
0001a0 fe 27 20 bd 43 5b 87 bc 6e 2f 92 bc 9c 71 91 3e
       -0.03910064 -0.01652301 -0.017844882 0.2840699
0001b0 b8 db cf bd fe 32 71 3d bb e0 88 3e 06 be 87 be
       -0.1014933 0.05888652 0.26733956 -0.26512164
0001c0 37 90 1d be b6 13 74 3e 64 78 ea bd 8e b3 60 3e
       -0.15387045 0.23835644 -0.11448744 0.21943495
0001d0 39 f1 99 3e 24 00 89 be 34 c9 f8 bd 2f ed 71 3d
       0.3006685 -0.2675792 -0.121477515 0.059064087
0001e0 f9 2d b0 3d 46 0b fe 3d b8 af 4d 3e eb 4f 8c 3e
       0.086025186 0.12404494 0.20086563 0.27404723
0001f0 2a 6d 80 3e f5 a5 0a be e0 49 67 be 89 ab bc 3d
       0.25083286 -0.1353987 -0.22586775 0.09212405
000200 c8 93 da 3c f9 a0 3b be c2 b6 7d bd 0f be 20 3e
       0.026681796 -0.18323125 -0.06194187 0.15697502
000210 fa 10 e9 bd f4 7a 8b 3d b7 68 4c 3e af b6 2f bc
       -0.11380191 0.06810561 0.1996182 -0.0107247075
000220 b4 d0 64 3d 18 cc 19 3e cd ab d2 3d a2 64 0a 3e
       0.055863097 0.15019262 0.10286675 0.13514951
000230 64 77 fb 3d 35 a5 23 3e 55 7d 02 be 55 fc 5b 3e
       0.12278631 0.1598099 -0.12743123 0.21482976
000240 44 34 91 3e 43 f9 f0 bd e1 e0 2a be 00 8c ad bc
       0.28360188 -0.11766293 -0.16687347 -0.021184921
000250 1d 49 38 be e5 5a 9e 3c 86 3c 2d bd 5b 65 a6 bd
       -0.1799664 0.019330451 -0.042294048 -0.08124801
000260 d5 26 cb bc ab e7 46 3e 55 3c 70 be 66 a5 5a be
       -0.02479879 0.19424312 -0.23460515 -0.21352157
000270 83 cb 19 be 89 04 f0 bc 05 0b 64 be 40 77 51 be
       -0.1501904 -0.029299038 -0.22269829 -0.20455647
000280 7a 54 a9 bd 1c dd 23 3e 27 b2 80 bd 5e 3e 83 3e
       -0.08268066 0.16002315 -0.0628398 0.2563352
000290 43 1d ca 3d ba bb 51 3e 3d 31 8f 3e dc 16 64 bd
       0.098688625 0.20481768 0.27967253 -0.055685863
0002a0 68 06 39 be f0 13 1c 3e 22 fd 8f 3e 87 90 99 bd
       -0.1806885 0.1524198 0.28122813 -0.074982695
0002b0 18 3e 37 be 25 ec 1f be a4 f2 43 be 65 6b db 3d
       -0.1789478 -0.15617426 -0.19135529 0.10713843
0002c0 60 8f 42 bc e6 36 55 be ae 78 8b 3e 6c ec f3 3d
       -0.011875004 -0.20821723 0.2724051 0.11910328
0002d0 f1 eb d8 bd 3a 1e 14 3e a2 29 d5 bd d2 9c 8f be
       -0.10591877 0.14464656 -0.104083315 -0.28049332
0002e0 22 76 83 3e f3 09 30 3e be e1 67 be 12 26 f4 3d
       0.25676066 0.17191295 -0.22644708 0.11921324
0002f0 38 6a 0c 3e 62 72 82 be 93 6d 25 3e 85 b4 9a 3d
       0.13712394 -0.25477892 0.1615508 0.075539626
000300 fa 0a 51 3e b0 77 6e be 39 2b 07 3e 18 9d d1 bc
       0.20414343 -0.23287845 0.13200082 -0.025587603
000310 ec de 97 be c1 2b 39 be 33 69 d7 3d 79 a9 8d 3e
       -0.29662263 -0.18083097 0.10518112 0.2766836
000320 80 21 9f 3e 1c 2f 5d be 4c 1b 40 be 0b d4 83 3e
       0.31080246 -0.21600002 -0.18760413 0.25747713
000330 23 c5 22 be c2 18 14 3d 42 8b fa 3c 3c 29 3c 3e
       -0.15895514 0.036156423 0.030583981 0.18375105
000340 c4 05 83 be 17 8d 8a 3b de a2 25 be 67 e2 1d bd
       -0.25590336 0.004228245 -0.1617541 -0.038545992
000350 d1 b9 68 3d ed 0f 01 3e 8d f2 0c 3e 6c 3f 05 3e
       0.056817833 0.12603731 0.13764401 0.13012475
000360 40 02 34 bd 38 18 65 3d 7b b5 20 3e c4 52 36 3e
       -0.04394746 0.0559313 0.1569423 0.1780501
000370 71 51 71 be be 10 f3 bd b5 dd 48 3e b3 ca 4a bd
       -0.23566224 -0.11868428 0.19615825 -0.049509715
000380 57 50 0d 3d c6 69 5b 3e 0b 3e c9 39 94 97 6f 3e
       0.034500446 0.21427068 0.00038383933 0.23397666
000390 9b 9f 07 be 22 cd f7 3d b3 8b 5f 3d c9 3a 05 3e
       -0.13244478 0.12099673 0.054576587 0.13010706
0003a0 a0 49 62 be 8e ad 24 be ee 43 6c 3e 4e 12 25 be
       -0.22098398 -0.16081831 0.23072788 -0.16120264
0003b0 57 12 60 be 86 71 d3 3d 90 24 0e be f2 14 77 3e
       -0.21881996 0.10324387 -0.13881135 0.24129084
0003c0 64 bc 79 3d 71 0b 7b 3e 03 73 29 3e 8a 73 87 be
       0.06097068 0.24516083 0.1654778 -0.26455337
0003d0 81 cc 87 3d 3a 13 30 be 06 42 03 3c de e7 00 be
       0.06630803 -0.17194834 0.008011347 -0.1258845
0003e0 1a a8 ad bc 74 c1 95 3e 19 7c 5f bd 3b 9c ba 3d
       -0.021198321 0.29249156 -0.054561708 0.0911183
0003f0 c3 a8 52 3e 12 7a 55 be 77 80 97 be 0b 91 b3 3d
       0.2057219 -0.20847347 -0.29590198 0.08767899

linear1.bias f4 [256]
000000 ce b7 8c be a6 ed 5f 3d 3d 3b 00 3e 1c e1 fc 39
       -0.27483982 0.05467 0.12522598 0.00048232905
000010 59 cf 47 3c 6c ea c9 bd 4b 5f 82 be 35 96 45 be
       0.012195432 -0.098591655 -0.25463328 -0.1929558
000020 32 8e 1c bd ea 3c 48 be 77 9f 52 be 6f 78 91 3d
       -0.038221546 -0.19554487 -0.20568644 0.07103049
000030 e8 ac 92 3e 40 84 60 3e 33 0b bd bd c8 9d 1f 3c
       0.28647542 0.2192545 -0.09230652 0.009742208
000040 67 ff 5e be 50 3d 2d be 01 72 4f 3e 14 31 95 3d
       -0.21777116 -0.1691792 0.20258333 0.072847515
000050 9f b3 1e bd 6b 99 1f be df 7d 5b 3d 86 5d 0a bd
       -0.03874552 -0.15585868 0.053586837 -0.033780597
000060 fa 6d 23 3d 0e d3 9a 3c 56 9c 9c 3d 89 5e b2 3d
       0.039899804 0.018899467 0.07647006 0.087094374
000070 49 68 54 3e 93 27 f9 bd 2d 8b 78 bd a0 b6 72 3e
       0.20742907 -0.12165751 -0.060679603 0.23702478
000080 1b 68 3d 3e 5b 37 73 be bc 9a 05 3c 08 c8 67 3e
       0.18496744 -0.23751585 0.008154567 0.226349
000090 3d d3 82 be 01 e3 68 3e 92 e7 9f bc 0a 34 85 3e
       -0.25551787 0.22742845 -0.019519601 0.26016265
0000a0 0b 12 02 be bf 85 8c be db 0c 88 3c 8d 4b 8a be
       -0.12702195 -0.2744579 0.016607692 -0.27010766
0000b0 50 00 0a be 62 10 57 3e 05 a0 5d 3e 87 7a c7 bd
       -0.13476682 0.21002343 0.21643074 -0.09740167
0000c0 f9 40 15 3e df 02 2b 3e 0f 4e 1b 3e 15 18 53 3e
       0.14575566 0.16700314 0.15166496 0.20614655
0000d0 54 5f 92 be f8 da 44 be 21 db e6 bd a8 f2 89 bd
       -0.28588355 -0.19224155 -0.11272264 -0.06735736
0000e0 2e c7 60 be 71 09 94 be b3 b6 09 3e 04 56 d1 3c
       -0.21950981 -0.28913453 0.134486 0.02555371
0000f0 9c e9 8d bd 12 6a 04 bc ba 21 42 3e 72 59 92 be
       -0.06929323 -0.00808193 0.18958178 -0.28583866
000100 2e 20 74 3e b0 6d 70 bd c7 de 74 be 26 ad 9a bb
       0.238404 -0.058698356 -0.23913108 -0.004720348
000110 8f fe 0b 3e ff 91 c5 3d c3 44 e4 bd 7b 11 8e 3e
       0.13671325 0.09646987 -0.11145928 0.27747712
000120 5e 7a ad bd cd be ba bd d3 e8 9c be 59 81 e7 bd
       -0.08470605 -0.091184236 -0.3064638 -0.11303968
000130 18 0c 83 be 00 1a 69 bd da 03 54 be b0 22 d2 bb
       -0.25595164 -0.05690956 -0.20704594 -0.0064128265
000140 13 25 97 3e c6 d5 1d 3e 61 89 78 3e 7e a1 97 be
       0.29520473 0.1541358 0.24271156 -0.29615396
000150 ef c3 aa 3c 80 d5 de bd 50 9d 6d 3e 6a 09 1f be
       0.020845382 -0.10880566 0.23204541 -0.15530935
000160 5c 17 2e 3d 77 27 be 3d 20 89 42 3e 14 ff 85 be
       0.042502746 0.09284871 0.18997622 -0.26171172
000170 6f 3a 5b 3e 04 f3 99 bc b0 fb 73 be b9 d6 8a be
       0.2140901 -0.018792637 -0.2382648 -0.27116945
000180 b3 22 16 bd 15 79 5a 3e 52 16 94 be 6e 57 09 3e
       -0.036654186 0.21335252 -0.2892328 0.13412258
000190 54 48 de bc 1e 30 8c 3e 71 77 71 3e c2 e3 f1 bd
       -0.027134098 0.2738046 0.2358072 -0.118110195
0001a0 0f 57 44 bd 15 fe f8 bd 9f b0 55 be 07 0f d3 3d
       -0.047934588 -0.12157837 -0.20868157 0.103056006
0001b0 7b 92 e0 bd 14 ce d0 bd 6a ee ee 3d bd b9 4f 3e
       -0.10965439 -0.10195556 0.116665676 0.20285697
0001c0 a9 0a 1e 3e 11 96 00 bd 15 8d 7c 3c e0 4e 80 bd
       0.15433754 -0.031393114 0.015414496 -0.06265044
0001d0 d8 e2 b0 bd 2c eb 96 bd 03 ab 6e 3d 51 a0 3d 3e
       -0.08637017 -0.07369074 0.05826856 0.18518187
0001e0 d4 ca e8 bd 10 0b 10 be 62 1d 1e be 2f e9 b9 bd
       -0.113668114 -0.1406672 -0.15440896 -0.09077679
0001f0 36 f9 6a be f6 07 a9 bd cc 8c 7d 3e 82 d2 c3 bc
       -0.22946629 -0.082534716 0.24760741 -0.023904089
000200 47 1e 89 bd ba 36 a0 be 5b 74 c8 3d 79 60 d1 3c
       -0.06695228 -0.31291753 0.09787818 0.025558697
000210 df 43 16 be 97 20 09 3e 02 6a 7b 3e a9 76 15 3e
       -0.14674328 0.13391338 0.24552158 0.14596047
000220 ad 05 4b 3e a5 d8 ab 3d ca 67 9e 3e 78 b9 04 be
       0.19826384 0.08390931 0.3093856 -0.12961376
000230 5e be 3e be ad 0c ef 3d 99 d6 89 bd 61 b6 c2 bd
       -0.18627307 0.116723396 -0.067303844 -0.09507442
000240 e0 02 8b 3e ec e9 ca 3d 5c 84 10 be 40 1d c5 3d
       0.2715063 0.09907898 -0.14112991 0.096247196
000250 a1 4d 2c be 52 37 90 3b ef 36 b5 bd 25 52 52 3e
       -0.16826488 0.004401126 -0.088483684 0.20539148
000260 8d 42 02 3e 96 75 84 be ab b0 4a be eb dc a3 3d
       0.127207 -0.2587096 -0.19793956 0.08001121
000270 c8 d8 a8 be 1e 7b 37 3e e2 90 9c be 75 04 99 3e
       -0.3297789 0.17918059 -0.30579287 0.29886213
000280 79 43 05 be fb fb fc bd fa 2f f6 3c be f1 51 3e
       -0.1301402 -0.12352749 0.030052174 0.20502374
000290 fb ce 3e 3e 66 df 40 be 01 aa f2 3d 8f 59 4d 3e
       0.18633644 -0.1883522 0.11848832 0.20053695
0002a0 fa 45 0f 3e 0e a5 70 be 0d 7c 11 be a6 dc 52 3e
       0.13991538 -0.23500463 -0.14207478 0.20591983
0002b0 57 74 93 3d 4d ec fe bd 84 45 f1 bd 6b 07 de 3d
       0.071999244 -0.124474145 -0.11780837 0.108412586
0002c0 9f e4 99 bd 89 3c 95 3d bc c3 4e be 70 8a 93 bd
       -0.07514309 0.07286937 -0.20191854 -0.07204139
0002d0 84 96 db 3d c5 2a 71 3e 44 ff 21 3e 89 bf 74 3e
       0.10722068 0.23551472 0.15820032 0.2390119
0002e0 b3 41 89 3e 11 10 06 bd a6 76 3f be 1f 85 7f bd
       0.26807937 -0.032730166 -0.18697605 -0.062382814
0002f0 24 24 89 be 34 3a 8a be 80 c3 42 be 02 da 48 3e
       -0.26785386 -0.2699753 -0.1901989 0.19614413
000300 d1 49 b2 3d 78 11 92 be ba 7c 72 be 88 ee 87 be
       0.087054856 -0.28528953 -0.23680392 -0.26549172
000310 01 39 0d be c7 0b 9b 3d 30 25 94 be dc de 69 be
       -0.13791277 0.07570606 -0.28934622 -0.2283892
000320 c7 e5 7c 3e f8 f4 24 3e 58 86 0d 3e c1 f7 9a be
       0.24697028 0.16109073 0.1382078 -0.30267146
000330 0e 58 a3 3e a6 e4 88 3e 6d c0 8c 3e 8c a4 78 3e
       0.31903118 0.26736945 0.2749056 0.2428152
000340 7e 46 9b be bd 93 44 be b4 d2 1d be 62 3e 20 be
       -0.3032722 -0.19196983 -0.15412408 -0.15648797
000350 e7 cc 17 3e 8a 2c 3d 3e cb 9d 8d 3d de b4 53 3e
       0.14824258 0.18474022 0.06914862 0.20674464
000360 a6 ac bc 3d 23 a4 86 bc a6 19 a0 be ff b5 65 be
       0.092126176 -0.016435688 -0.31269568 -0.22432707
000370 7a c4 2a be 8a 79 74 3e 24 f7 9c be 77 3c 8f be
       -0.16676512 0.23874488 -0.30657303 -0.2797582
000380 8d dc 6d 3e bb dc c3 bd cd 9f 0a 3e 9c 7d 97 be
       0.23228665 -0.09563585 0.13537522 -0.2958802
000390 2e eb 89 be 67 0a 4e 3e d0 4a 8d 3e 85 70 cf 3d
       -0.2693724 0.20121156 0.2759614 0.10128883
0003a0 e0 18 6f bd 80 10 fd bd 52 26 f6 bb cd 9d ef 3d
       -0.058373332 -0.12356663 -0.0075118924 0.1170002
0003b0 b6 99 26 3e 9d 9c 69 bc b4 dc 2a be 05 47 46 be
       0.16269574 -0.014258531 -0.16685754 -0.1936303
0003c0 a4 ba a0 be a4 51 9c 3e 13 77 42 be e2 45 8c 3e
       -0.31392395 0.30531037 -0.18990736 0.27397066
0003d0 ff 56 c5 bc 58 2d d0 3c 67 d1 ab 3d 17 ba f8 bd
       -0.024089335 0.025412247 0.0838955 -0.12144869
0003e0 f5 68 10 be ae d7 96 3e b5 89 0b be ba 8c d5 3c
       -0.14102538 0.29461426 -0.1362675 0.02606808
0003f0 0a d6 aa bd b3 3f 37 be 26 b5 1f 3e 7b 15 20 3c
       -0.08341606 -0.17895393 0.15596446 0.009770746

linear2.weight f4 [3, 256]
000000 a3 94 0c 3d 39 93 3f 3d 0c 8c 34 3c f1 ed 99 3c
       0.03432144 0.04677126 0.011019718 0.018790217
000010 2b 76 78 bd 58 a2 4f 3d 2e 8a 95 bd 52 e4 25 bd
       -0.06065957 0.050691932 -0.07301746 -0.040500946
000020 96 88 c9 3c c0 b2 5d bd 40 fa f4 bc e0 06 22 3b
       0.024601262 -0.054125547 -0.029904485 0.0024723336
000030 75 a1 1a bd c6 4f 3c bc 81 0a 9c 3d d9 3a 3c bd
       -0.037751634 -0.011493629 0.07619191 -0.04595456
000040 f6 3e 70 3c 5b 53 a6 3c da db 9a bc a8 e1 50 bd
       0.014663449 0.020303419 -0.018903662 -0.050996453
000050 dc fe 74 3a 8b 68 3a bd 59 99 01 bd 07 c9 49 3d
       0.00093458383 -0.045509856 -0.031640384 0.04926398
000060 e3 93 44 3c 8f fb 45 bd 8d 0c 57 bd d0 fb c6 bc
       0.01199815 -0.048335608 -0.052502204 -0.024289995
000070 df 71 0c 3d 66 78 4e 3d 1e 84 62 bc 21 a2 2b 3c
       0.034288283 0.05040779 -0.0138254445 0.010475666
000080 23 0a 2c 3d 3b be 2c bd b0 4f 8d 3d 13 c7 ab bb
       0.042001855 -0.042173605 0.06899965 -0.0052422374
000090 14 6b 05 bd ed fb fa bc 54 57 3a bd 1b 7a 32 3d
       -0.03257282 -0.030637706 -0.04549344 0.04357348
0000a0 8a 65 84 bd f2 9b e8 3c de 5a 86 3c c9 69 49 bb
       -0.064646795 0.028394673 0.01640075 -0.003073322
0000b0 bc 4e 14 3d c3 45 87 bd d6 01 78 bd 05 36 38 bd
       0.0362079 -0.06605103 -0.060548626 -0.044973392
0000c0 78 77 08 3d 18 e6 23 bd f7 81 2f 3d b6 75 1e bc
       0.03331706 -0.040014356 0.042848554 -0.009671619
0000d0 5b ac 02 bd d2 e2 40 3d d7 6b 3b 3d c8 5f e8 3c
       -0.031902652 0.047091313 0.04575714 0.028365985
0000e0 78 11 4d bd 56 17 6d bd 78 3b cf 3b 64 51 83 3c
       -0.050065488 -0.057883583 0.006324228 0.016030021
0000f0 3c f5 f9 bc 16 bc 22 bd e6 15 e4 bc 55 73 22 3c
       -0.030512445 -0.039730154 -0.027842473 0.009915193
000100 df 9c 92 bc c3 70 8a 3d 10 e1 33 bd b5 a3 64 3c
       -0.017897068 0.06759789 -0.04391581 0.013955046
000110 20 d1 02 bd a7 5a 58 bd fe 93 12 bd e9 4f f0 bc
       -0.03193772 -0.052820828 -0.035785668 -0.02933498
000120 0a 08 f9 3c fd 1d 78 3c 03 ce ff 3c 4b 9d dd 3c
       0.030399341 0.0151438685 0.031226164 0.027052542
000130 de a0 ff 3a 09 76 11 bd 1a f7 48 3b 72 77 1c 3d
       0.0019502898 -0.035512958 0.0030664862 0.03819985
000140 a4 17 55 bc ea b3 61 3d 92 8a 81 bd da 3d 16 3b
       -0.013006125 0.05510322 -0.06325258 0.002292505
000150 54 a5 be bc ba 87 41 bd 88 64 81 3c 28 f5 28 bd
       -0.023272194 -0.04724858 0.015795007 -0.041249424
000160 46 22 1b 3d 21 56 eb 3c 17 8a d0 3c 58 db 46 bc
       0.037874483 0.028727593 0.025456471 -0.012137257
000170 5d 15 d9 ba a8 a4 52 bd 61 c9 9b bd f0 8d 84 bb
       -0.0016562153 -0.05142656 -0.07606769 -0.0040452406
000180 30 7a 97 bd a1 78 7b bd 71 b9 f2 bc cf cb 6b bd
       -0.07396352 -0.061394338 -0.029629441 -0.057567414
000190 fe fa 35 bd 0e 17 47 3d 18 17 82 3c fc 13 5a 3d
       -0.044428818 0.04860597 0.015880153 0.053241715
0001a0 02 cc dc bc 40 40 3f 3d 0b c3 3e 3c 23 b3 0e 3d
       -0.026952747 0.046692133 0.011643182 0.034838807
0001b0 2f 54 c9 bc 46 a8 d1 3c fd 9c 71 bd 55 8b 82 bd
       -0.024576275 0.025592934 -0.058987606 -0.06374232
0001c0 3d 26 ca bc 79 4f 6d bd 5d 13 41 3d 9f 5a 54 3c
       -0.024676437 -0.05793712 0.047137607 0.012961059
0001d0 f2 30 4e bd 86 6f 98 3b e5 61 1d 3d 36 61 60 3d
       -0.050339647 0.0046519665 0.038423438 0.054780208
0001e0 0b 15 52 bd 84 17 c4 3b 19 0e 5d bd bf c8 ab 3c
       -0.0512896 0.0059842486 -0.053968523 0.020969747
0001f0 0b 28 51 3c f2 63 c3 3c fe c6 b8 3b 1d a0 ea bc
       0.012765895 0.023851369 0.005638956 -0.028640801
000200 57 47 7c 3d 06 54 79 3b b1 90 b2 3c a5 ef bc bb
       0.061591472 0.0038044467 0.02179751 -0.0057658725
000210 9c ea 53 3d b1 9d 7c bd 71 d7 3f 3d d8 4f 55 3c
       0.051737413 -0.061673824 0.04683632 0.0130195245
000220 b6 e7 77 bb df 79 02 bd fe 40 7f 3b 7d 03 89 bb
       -0.003782732 -0.031854507 0.003894865 -0.004181324
000230 3b 16 35 bd af 68 ab 3c 64 f8 82 3d 3c 26 17 3d
       -0.044210654 0.02092394 0.06395033 0.036901698
000240 45 43 0f bd 06 53 0b 3d 60 7c b0 3c fa fe 2b 3c
       -0.034976263 0.034014724 0.021543682 0.010497803
000250 88 ce 28 3d f7 ae 58 3d bd e7 51 bd 6c f8 d0 bc
       0.04121259 0.052901234 -0.051246393 -0.025509082
000260 36 2a 24 3d c1 c5 4b 3d ae df e8 3c c6 dc ca 3c
       0.040079318 0.04974914 0.028426971 0.024763476
000270 79 2a 3a bd 7a e5 a0 3b 00 d3 fa 3b 02 fd b2 3d
       -0.04545066 0.0049101682 0.0076545477 0.08739664
000280 02 9c b1 3c f6 f4 89 bd 29 59 70 bd 61 f9 a8 bc
       0.021680836 -0.06736176 -0.05867878 -0.020626726
000290 a9 3d 88 bd fe c9 c6 3c 01 d1 d2 bc 73 a2 88 bd
       -0.06652386 0.02426624 -0.025734426 -0.0667161
0002a0 64 c4 f8 bb 70 57 54 3c a8 a1 22 bd 24 99 0b bb
       -0.007591771 0.0129603 -0.03970495 -0.0021300996
0002b0 19 e6 ef 3b f5 df f5 bc ca 04 1b 3d e0 b8 8f 3c
       0.007321131 -0.030014018 0.037846364 0.01754421
0002c0 33 ff 19 bd e3 f1 63 3d f2 22 36 3b 1c 44 8f 3c
       -0.037596893 0.055650603 0.0027791825 0.017488532
0002d0 57 0a 93 bc e7 c2 11 3c f4 b1 03 3d 47 4a e7 3b
       -0.017949266 0.008896566 0.03215213 0.007058415
0002e0 87 01 67 bd 69 cb ed bc ed 67 e2 3b e4 27 23 3d
       -0.05639794 -0.029027658 0.0069093616 0.039832965
0002f0 82 9d 73 3d 6d 5f f4 3a c2 51 96 bc 2a 2d 39 bd
       0.059476383 0.0018644162 -0.018349532 -0.045209087
000300 8d 9b f9 bb f5 16 ff bc 46 34 9d bd dd 04 74 3d
       -0.00761742 -0.031138876 -0.07675986 0.05957495
000310 7f 52 7d bc 4a ca 83 bd ea 4b 26 3d d1 1d 59 3c
       -0.015461563 -0.06435068 0.04059974 0.013251738
000320 d7 75 27 3d 29 64 27 bd 8c a2 59 bd a8 48 e3 3c
       0.040883865 -0.040867005 -0.053133532 0.027744606
000330 c2 01 28 3b 07 e5 5f bd 33 ce 02 bd 17 7b 50 3d
       0.0025635813 -0.054661777 -0.03193493 0.050898638
000340 b6 02 be 3c 50 99 61 bd 43 20 7e 3c dd 7f 49 3d
       0.023194652 -0.05507785 0.0155106215 0.049194206
000350 77 cd 64 bd 86 6f 45 3d 0f ca 82 bd 67 5b 11 bd
       -0.05586001 0.04820206 -0.06386196 -0.03548756
000360 ee 43 7b b9 ae 20 0a bd c0 1d 00 3d d4 e8 77 3b
       -0.00023962531 -0.033722572 0.03127837 0.0037827985
000370 03 d8 5c 3b fd 0b 6a 3d 93 84 7c 3c 65 78 72 3c
       0.003369809 0.05714034 0.0154124675 0.014799212
000380 1a 76 ba bc 92 e5 c9 3c f1 bf df bb 90 45 12 3d
       -0.022761393 0.0246456 -0.006828301 0.03571087
000390 68 fa 61 bd 9b ab b5 3c 0a be 2f bc a1 69 49 bd
       -0.055170447 0.022176554 -0.010726461 -0.049173
0003a0 85 31 ba bc 70 91 b6 3c fc 0f ed bc e4 8f 67 3c
       -0.02272869 0.022286147 -0.028938286 0.014133427
0003b0 a2 fb 9f bc 4f 3f 0b bb e5 bf e7 bc 8a 25 6e 3d
       -0.019529168 -0.0021247452 -0.028289745 0.05814127
0003c0 49 34 60 3d 91 c7 66 bd bb 21 ae bc 93 8a 38 bc
       0.054737363 -0.056342665 -0.021256318 -0.011263507
0003d0 e3 0c 84 bd 65 a1 42 bd 94 f2 f9 bc 00 0a 4a 3d
       -0.064477704 -0.0475172 -0.030511178 0.049325943
0003e0 78 41 49 3c 20 f2 bc bc a8 31 46 bd a8 ff bf bc
       0.012283675 -0.023064673 -0.0483872 -0.023437336
0003f0 73 e2 83 3c 1d cb 20 3c 93 28 48 3d f0 26 51 3d
       0.01609919 0.009814051 0.04886682 0.051062524

linear2.bias f4 [3]
000000 69 b5 16 3c b5 9e 14 3d f3 c4 4d bd
       0.009198525 0.036284167 -0.050236654
